…
LeRobot and RoboVerse Camera Mapping: ['image', 'wrist_image'] -> ['3p1', '3p2']
Delta Timestamps: {'state': [0.0], 'actions': [-0.1, 0.0, 0.1, 0.2, 0.3, 0.4, 0.5, 0.6, 0.7]}
Stats: {'out_ori_act': {'max': array([0.9375    , 0.9375    , 0.9375    , 0.35571429, 0.375     ,
       0.375     , 1.        ]), 'min': array([-0.9375    , -0.9375    , -0.9375    , -0.25821429, -0.375     ,
       -0.36750001, -1.        ])}}
QwenActor(
  (model): Qwen2_5_VLForConditionalGeneration(
    (model): Qwen2_5_VLModel(
      (visual): Qwen2_5_VisionTransformerPretrainedModel(
        (patch_embed): Qwen2_5_VisionPatchEmbed(
          (proj): Conv3d(3, 1280, kernel_size=(2, 14, 14), stride=(2, 14, 14), bias=False)
        )
        (rotary_pos_emb): Qwen2_5_VisionRotaryEmbedding()
        (blocks): ModuleList(
          (0-31): 32 x Qwen2_5_VLVisionBlock(
            (norm1): Qwen2RMSNorm((1280,), eps=1e-06)
            (norm2): Qwen2RMSNorm((1280,), eps=1e-06)
            (attn): Qwen2_5_VLVisionAttention(
              (qkv): Linear(in_features=1280, out_features=3840, bias=True)
              (proj): Linear(in_features=1280, out_features=1280, bias=True)
            )
            (mlp): Qwen2_5_VLMLP(
              (gate_proj): Linear(in_features=1280, out_features=3420, bias=True)
              (up_proj): Linear(in_features=1280, out_features=3420, bias=True)
              (down_proj): Linear(in_features=3420, out_features=1280, bias=True)
              (act_fn): SiLUActivation()
            )
          )
        )
        (merger): Qwen2_5_VLPatchMerger(
          (ln_q): Qwen2RMSNorm((1280,), eps=1e-06)
          (mlp): Sequential(
            (0): Linear(in_features=5120, out_features=5120, bias=True)
            (1): GELU(approximate='none')
            (2): Linear(in_features=5120, out_features=2048, bias=True)
          )
        )
      )
      (language_model): Qwen2_5_VLTextModel(
        (embed_tokens): Embedding(151936, 2048)
        (layers): ModuleList(
          (0-35): 36 x Qwen2_5_VLDecoderLayer(
            (self_attn): Qwen2_5_VLAttention(
              (q_proj): Linear(in_features=2048, out_features=2048, bias=True)
              (k_proj): Linear(in_features=2048, out_features=256, bias=True)
              (v_proj): Linear(in_features=2048, out_features=256, bias=True)
              (o_proj): Linear(in_features=2048, out_features=2048, bias=False)
              (rotary_emb): Qwen2_5_VLRotaryEmbedding()
            )
            (mlp): Qwen2MLP(
              (gate_proj): Linear(in_features=2048, out_features=11008, bias=False)
              (up_proj): Linear(in_features=2048, out_features=11008, bias=False)
              (down_proj): Linear(in_features=11008, out_features=2048, bias=False)
              (act_fn): SiLUActivation()
            )
            (input_layernorm): Qwen2RMSNorm((2048,), eps=1e-06)
            (post_attention_layernorm): Qwen2RMSNorm((2048,), eps=1e-06)
          )
        )
        (norm): Qwen2RMSNorm((2048,), eps=1e-06)
        (rotary_emb): Qwen2_5_VLRotaryEmbedding()
      )
    )
    (lm_head): Linear(in_features=2048, out_features=151936, bias=False)
  )
  (loss_fn): CrossEntropyLoss()
)
==================================================
Model Statistics:
Total parameters: 3,754,622,976
Trainable parameters: 3,754,622,976
Non-trainable parameters: 0
==================================================
[rank0]:[W1203 20:51:45.180678028 ProcessGroupNCCL.cpp:5072] Guessing device ID based on global rank. This can cause a hang if rank to GPU mapping is heterogeneous. You can specify device_id in init_process_group()
…
